…
  return torch.max_pool2d(input, kernel_size, stride, padding, dilation, ceil_mode)
Progress:   0%|                                                                                                                           | 0/90 [00:00<?, ?it/s]
Training:   0%|                                                                                                                           | 0/55 [00:00<?, ?it/s]
----------------------------------------------------------------
        Layer (type)               Output Shape         Param #
================================================================
            Conv2d-1         [-1, 32, 512, 512]             320
              ReLU-2         [-1, 32, 512, 512]               0
       BatchNorm2d-3         [-1, 32, 512, 512]              64
            Conv2d-4         [-1, 32, 512, 512]           9,248
              ReLU-5         [-1, 32, 512, 512]               0
       BatchNorm2d-6         [-1, 32, 512, 512]              64
         MaxPool2d-7         [-1, 32, 256, 256]               0
         DownBlock-8  [[-1, 32, 256, 256], [-1, 32, 512, 512]]               0
            Conv2d-9         [-1, 64, 256, 256]          18,496
             ReLU-10         [-1, 64, 256, 256]               0
      BatchNorm2d-11         [-1, 64, 256, 256]             128
           Conv2d-12         [-1, 64, 256, 256]          36,928
             ReLU-13         [-1, 64, 256, 256]               0
      BatchNorm2d-14         [-1, 64, 256, 256]             128
        MaxPool2d-15         [-1, 64, 128, 128]               0
        DownBlock-16  [[-1, 64, 128, 128], [-1, 64, 256, 256]]               0
           Conv2d-17        [-1, 128, 128, 128]          73,856
             ReLU-18        [-1, 128, 128, 128]               0
      BatchNorm2d-19        [-1, 128, 128, 128]             256
           Conv2d-20        [-1, 128, 128, 128]         147,584
             ReLU-21        [-1, 128, 128, 128]               0
      BatchNorm2d-22        [-1, 128, 128, 128]             256
        MaxPool2d-23          [-1, 128, 64, 64]               0
        DownBlock-24  [[-1, 128, 64, 64], [-1, 128, 128, 128]]               0
           Conv2d-25          [-1, 256, 64, 64]         295,168
             ReLU-26          [-1, 256, 64, 64]               0
      BatchNorm2d-27          [-1, 256, 64, 64]             512
           Conv2d-28          [-1, 256, 64, 64]         590,080
             ReLU-29          [-1, 256, 64, 64]               0
      BatchNorm2d-30          [-1, 256, 64, 64]             512
        DownBlock-31  [[-1, 256, 64, 64], [-1, 256, 64, 64]]               0
  ConvTranspose2d-32        [-1, 128, 128, 128]         131,200
             ReLU-33        [-1, 128, 128, 128]               0
      BatchNorm2d-34        [-1, 128, 128, 128]             256
      Concatenate-35        [-1, 256, 128, 128]               0
           Conv2d-36        [-1, 128, 128, 128]         295,040
             ReLU-37        [-1, 128, 128, 128]               0
      BatchNorm2d-38        [-1, 128, 128, 128]             256
           Conv2d-39        [-1, 128, 128, 128]         147,584
             ReLU-40        [-1, 128, 128, 128]               0
      BatchNorm2d-41        [-1, 128, 128, 128]             256
          UpBlock-42        [-1, 128, 128, 128]               0
  ConvTranspose2d-43         [-1, 64, 256, 256]          32,832
             ReLU-44         [-1, 64, 256, 256]               0
      BatchNorm2d-45         [-1, 64, 256, 256]             128
      Concatenate-46        [-1, 128, 256, 256]               0
           Conv2d-47         [-1, 64, 256, 256]          73,792
             ReLU-48         [-1, 64, 256, 256]               0
      BatchNorm2d-49         [-1, 64, 256, 256]             128
           Conv2d-50         [-1, 64, 256, 256]          36,928
             ReLU-51         [-1, 64, 256, 256]               0
      BatchNorm2d-52         [-1, 64, 256, 256]             128
          UpBlock-53         [-1, 64, 256, 256]               0
  ConvTranspose2d-54         [-1, 32, 512, 512]           8,224
             ReLU-55         [-1, 32, 512, 512]               0
      BatchNorm2d-56         [-1, 32, 512, 512]              64
      Concatenate-57         [-1, 64, 512, 512]               0
           Conv2d-58         [-1, 32, 512, 512]          18,464
             ReLU-59         [-1, 32, 512, 512]               0
      BatchNorm2d-60         [-1, 32, 512, 512]              64
           Conv2d-61         [-1, 32, 512, 512]           9,248
             ReLU-62         [-1, 32, 512, 512]               0
      BatchNorm2d-63         [-1, 32, 512, 512]              64
          UpBlock-64         [-1, 32, 512, 512]               0
           Conv2d-65          [-1, 1, 512, 512]              33
================================================================
Total params: 1,928,289
Trainable params: 1,928,289
Non-trainable params: 0
----------------------------------------------------------------
Input size (MB): 1.00
Forward/backward pass size (MB): 184547282.00
Params size (MB): 7.36
Estimated Total Size (MB): 184547290.36
----------------------------------------------------------------
…
